assets/plane_strike.tflite (tflite, 84900 bytes, 6 tensors)

Reshape_3 f4 [1, 64]
000000 f1 33 22 be 33 ee 3e be 97 59 12 be f3 b3 0f be
       -0.15840127 -0.18645553 -0.14291988 -0.14033489
000010 89 fa a0 bd 1c 39 46 be 7d f0 2b be 81 76 13 be
       -0.07860286 -0.19357723 -0.16790958 -0.14400674
000020 4f b3 0c be e8 72 61 3d b0 7f c9 3d 04 e6 4f bd
       -0.13740276 0.055041224 0.098388076 -0.05075647
000030 67 fd 70 3e bd cd e2 3c ec e4 a7 3c ec 5c e9 bd
       0.23534165 0.027685994 0.0204949 -0.113946766
000040 ff de 45 be 9e 7a 5b 3e 48 02 f1 ba aa 18 67 3e
       -0.19323348 0.21433493 -0.0018387521 0.22568002
000050 84 65 5e 3e 2a 10 17 3e bb 44 1f 3d e7 a1 c1 bd
       0.21718413 0.1475226 0.038883906 -0.094547085
000060 52 a8 32 be 2b ff 64 3e 31 18 65 bd 28 c5 9c 3e
       -0.17447022 0.22362964 -0.055931274 0.30619168
000070 4a f9 1e 3e a9 30 8d 3e cb f2 8b 3c f6 c5 57 be
       0.15524784 0.27576187 0.017083546 -0.2107161
000080 d3 d4 f4 bd 8a ef 31 3e b7 de 17 3e a8 fa 1e 3e
       -0.119546555 0.17376533 0.14831053 0.15525305
000090 64 93 b2 3d d0 36 20 3e ed dc ac 3d b6 c0 c6 bd
       0.08719519 0.1564591 0.08440576 -0.097047254
0000a0 25 de 3c be c0 07 cc 3d fd 76 37 3e a7 f3 ad 3d
       -0.18444116 0.09962416 0.17916484 0.084937386
0000b0 3f 03 5b 3e c8 01 77 3d 17 82 84 3d 19 b2 36 be
       0.21387957 0.060304433 0.06470125 -0.17841376
0000c0 1e fc b1 bd 4b 08 e7 ba a8 d0 0f 3d 94 d5 96 3d
       -0.08690666 -0.0017626373 0.0351111 0.073649555
0000d0 0d 1b 5b 3e 2a e9 23 3d 9d 3d 37 bd 75 0b 10 be
       0.21397038 0.040017284 -0.044736493 -0.1406687
0000e0 6f dc 15 be 64 af f9 bd 7a 9c a7 bd d5 d0 18 be
       -0.1463487 -0.12191656 -0.081841424 -0.14923413
0000f0 2c cb 56 be 73 01 d7 bd 8d 51 97 bd e6 0e 0d be
       -0.20975941 -0.10498323 -0.073886015 -0.13775215

Reshape_2 f4 [1, 64]
000000 9d f3 e5 3e 23 36 24 3c 17 53 66 3f 64 cb ec 3e
       0.44912425 0.010022673 0.89970535 0.46248925
000010 43 71 08 3f 3b 4e 64 bd 04 84 46 3e f7 69 a3 3e
       0.53297824 -0.05573867 0.19386297 0.31916782
000020 3b 63 2b 3d 3c f4 60 3f 17 85 d2 3d 17 63 71 3e
       0.04184268 0.8787267 0.10279291 0.23572956
000030 e1 d8 56 3e f7 c0 4c bd 02 c1 57 3e 1e 41 c0 3c
       0.2098117 -0.049988713 0.2106972 0.02346855
000040 47 66 24 3f 11 a5 18 3e 03 6a 32 3d 86 06 98 3d
       0.6421856 0.14906718 0.043558132 0.07423119
000050 b8 c9 f5 3e 78 13 d2 bc d0 e4 6a 3e f1 58 f2 3e
       0.48005462 -0.025644049 0.22938848 0.47333482
000060 06 cb 12 3e 35 77 9d 3e 71 da 75 be a8 21 88 3e
       0.1433526 0.3075501 -0.2400911 0.26588178
000070 20 22 83 3d 00 b6 c0 3c fe f5 62 bd 1e c2 b0 3d
       0.06402993 0.023524284 -0.055410378 0.08630775
000080 15 c4 c2 3e 0d 67 74 3e c9 a6 80 3e 9c f2 82 be
       0.38040224 0.23867436 0.25127247 -0.2557572
000090 33 ec b2 3d d1 fa 02 3f fe a0 13 bd 7a 0d 1c bc
       0.08736458 0.51163965 -0.036042206 -0.009524697
0000a0 d0 f4 ce 3e ba 62 f8 3e e4 51 25 3d 35 97 8b 3d
       0.40421152 0.48512822 0.0403613 0.0681595
0000b0 27 72 2a 3e 42 01 e2 3c 13 5d 0c 3f 3c e3 10 3e
       0.16645108 0.02758849 0.5482952 0.14149183
0000c0 dc 1a 60 bd bd eb 94 be 16 16 37 3f 1b ea 21 be
       -0.054713115 -0.29086104 0.71518075 -0.1581196
0000d0 68 4d 8c 3e 04 78 d9 3e 0d d0 84 3e f3 bf e6 3d
       0.27402806 0.42474377 0.2593998 0.1126708
0000e0 b4 14 b6 bd 88 cc 53 3f 37 e9 a3 3e 2f d5 8b 3d
       -0.088906676 0.82733965 0.32013866 0.06827771
0000f0 9d ca ea 3e a4 ff a4 3d 02 4f 74 3e 7a 40 a7 3e
       0.45857707 0.08056572 0.23858264 0.3266638

Reshape_1 f4 [1, 128]
000000 ff 97 99 3d 01 fc 90 3e fd ab a1 be 59 c8 d2 be
       0.07499694 0.28317264 -0.3157653 -0.41168478
000010 5d 6c 07 3f 47 05 c7 3b 4a de d1 bd 22 9d bf bd
       0.52899724 0.006073627 -0.102474764 -0.093561426
000020 06 ff bd bd f4 fa 80 be 26 dc 61 bd 14 8c 28 3d
       -0.092771575 -0.25191462 -0.05514159 0.041149214
000030 23 81 06 be c9 6b 81 3e e4 f7 69 be 0c 11 6e be
       -0.13135199 0.25277546 -0.22848469 -0.2324869
000040 c2 de 2f bd c6 0c 38 3e 58 39 83 be df a5 82 be
       -0.042937048 0.17973623 -0.25629687 -0.25517175
000050 d8 ee 9d bd 5e 60 84 3b 47 d0 4e 3f ee 51 2e 3e
       -0.077115715 0.004039808 0.80786556 0.17023441
000060 8b 0e 1d ba 0e 07 d7 bd 24 e2 82 be d3 d1 77 bd
       -0.0005991242 -0.104993924 -0.25563157 -0.06050284
000070 a0 62 7c 3e 52 84 7a 3e ae 4c 90 bd 82 d5 0b be
       0.24646997 0.24464539 -0.070458755 -0.13655666
000080 83 17 ac be b4 66 1d 3c 52 09 36 be 4d bf ca 3d
       -0.33611688 0.009607006 -0.17776993 0.09899769
000090 16 63 89 3c 31 7d 4d bd a4 29 95 be 8b 5b 3e be
       0.01677088 -0.05016822 -0.29133332 -0.18589608
0000a0 20 67 2b 3e d8 a8 db bb f4 45 90 3e db f0 47 3e
       0.16738558 -0.0067034774 0.2817837 0.19525473
0000b0 78 0b ec bd 97 2b de 3e 01 2c d6 bd 48 fe 23 3e
       -0.11525625 0.4339263 -0.10457612 0.1601497
0000c0 4d 63 10 3e d9 bb 4a bc 20 d1 e8 3d 1a 2b a4 3d
       0.1410038 -0.012373888 0.113680124 0.080160335
0000d0 81 9d 84 be dc 45 c5 3e b0 6b f4 bd 48 ed d0 3d
       -0.25901416 0.3852986 -0.11934602 0.10201508
0000e0 e7 0b cf 3e 45 b9 86 bd ea 3c 8a 3d f8 57 09 be
       0.40438768 -0.06578306 0.067499 -0.13412464
0000f0 36 ae 6c be 34 c6 26 bc e5 4c ef be 79 a8 26 bd
       -0.23113331 -0.010179091 -0.46738353 -0.04068801
000100 09 e4 b8 3c e0 b1 3d 3e e7 f0 ac 3d b9 94 1f 3d
       0.022569673 0.18524885 0.08444386 0.038960192
000110 7b d3 19 be 94 4a 2d 3d d4 a2 66 be e6 8f 85 bd
       -0.1502208 0.04230745 -0.22523052 -0.06521587
000120 c1 15 af be 6b aa df be ef 2f 88 3e ea 3f 6b 3e
       -0.34196284 -0.43684706 0.2659907 0.229736
000130 76 18 15 3e f8 64 9d 3e 31 ff 05 be 2c 5e be bd
       0.14560112 0.30741096 -0.13085629 -0.092953056
000140 4c 66 4e be 04 7b eb bd ac 19 20 3f 06 ac 0a 3e
       -0.2015621 -0.11498073 0.6253917 0.13542184
000150 68 c7 24 be 2c 14 cc bd 53 25 8b be 91 a8 56 bd
       -0.16091692 -0.09964785 -0.27176914 -0.05240685
000160 8f f1 bf bc 3c 5b c1 3e 2c 08 a7 3d 80 b5 20 3f
       -0.023430614 0.3776492 0.081558555 0.6277695
000170 87 f2 09 bf 34 f1 51 3e e9 fa 27 3f bd dc ce 3d
       -0.5388569 0.20502168 0.65617234 0.10100696
000180 2c a3 70 bd c4 e0 02 3f b4 03 22 3e 5b 69 1b 3e
       -0.058749363 0.51124215 0.15821725 0.15176909
000190 ed a7 81 bd 3e 98 67 3e d4 60 9e 3e 6f 5f f6 3d
       -0.063308574 0.2261667 0.3093325 0.12029921
0001a0 44 e2 03 3e 69 31 08 bb db fd cd 3e 54 69 11 be
       0.12879282 -0.0020781404 0.4023274 -0.14200336
0001b0 49 5f 96 3d a4 cf 99 bd 64 c8 ab bd e3 53 97 be
       0.07342393 -0.075103074 -0.08387831 -0.29556188
0001c0 64 88 88 3c a0 a8 eb bb 95 04 87 3e e8 d8 8f 3e
       0.016666599 -0.0071917325 0.26370683 0.28095174
0001d0 4a 12 5d 3e 54 b5 74 3e 41 73 28 3f f2 af 56 3d
       0.21589008 0.23897296 0.65800864 0.05241389
0001e0 9e d7 0d 3e 36 4b e1 bd fa b4 8a 3e 83 22 5e bc
       0.13851783 -0.110006735 0.270912 -0.013558033
0001f0 f4 ea af 3e 1d 2d 0b 3d 51 00 b5 be b0 5e 9d 3e
       0.34358943 0.03397857 -0.35351804 0.30736303

MatMul f4 [128, 64]
000000 90 c0 b7 3e 0f ca 2d be 6a 74 3e 3e c7 c7 e7 be
       0.358891 -0.1697161 0.18599096 -0.45269606
000010 3c 89 25 3e d1 79 e5 be 06 66 4c 3d 61 55 df 3d
       0.16165632 -0.448195 0.049901985 0.109049566
000020 db 4b 1d be 18 50 8c be d1 72 09 3e 16 ee cb bd
       -0.15360968 -0.27404857 0.13422705 -0.09957521
000030 7d d0 20 3e 73 f0 d1 3d 32 8f 8c 3e 5c 74 ac 3e
       0.15704532 0.1025094 0.27453 0.33682525
000040 a2 ad f9 3c ea b3 75 be ce d6 06 3e ac fc 85 be
       0.030478302 -0.23994413 0.13167879 -0.26169336
000050 5e 59 39 be a0 87 5a 3c 6e 3a 06 3e 90 1b ff 3e
       -0.18100497 0.013338 0.13108227 0.49825716
000060 ef 4d 05 3e c8 0c 26 bc 76 46 a9 bd eb cc 88 be
       0.1301801 -0.010134883 -0.082653925 -0.2671884
000070 51 1f 90 be ab 60 49 be 8d 85 66 be c2 50 34 3c
       -0.28148893 -0.19665782 -0.22511883 0.011005582
000080 c1 2a 95 3e 51 d7 c4 3d 10 16 a3 3e 23 28 00 bf
       0.2913418 0.09611381 0.3185277 -0.50061244
000090 eb 73 02 c0 ec 9d b5 be 3b af 10 bf 99 b7 cf bd
       -2.038325 -0.35472047 -0.5651738 -0.1014244
0000a0 ab ab 0d 3e 90 53 f6 3d 24 b9 9f bd 0f e5 3c 3d
       0.13835017 0.12027657 -0.07798985 0.046116885
0000b0 8a 83 fd be 12 dc ae bd f9 db 51 bd 1e 5d b1 3b
       -0.4951442 -0.08538069 -0.051235173 0.0054127118
0000c0 33 39 ac be bc f1 0c 3f ae 9d 98 be 99 b7 26 bd
       -0.3363739 0.5505636 -0.298078 -0.040702436
0000d0 97 63 d8 bd dc 55 00 be 4f 05 c9 bd 70 eb a7 3e
       -0.1056587 -0.12532753 -0.09815466 0.32796812
0000e0 e9 f5 df be 5b 86 fd 3e 31 5f fa 3e f9 88 1b be
       -0.43742302 0.49516568 0.4890075 -0.1518897
0000f0 81 fa f8 bd 37 b6 9d be 48 61 80 3e 78 be 2d be
       -0.12157155 -0.3080308 0.2507422 -0.1696719
000100 e7 7b 7b 3e 32 d5 97 bb 15 2e d8 be aa 60 19 3f
       0.24558984 -0.004633569 -0.42222658 0.5991312
000110 fe 1a 8d bd fe 49 95 3e 10 c6 37 be 8a 10 14 3e
       -0.06889914 0.29158014 -0.17946649 0.14459434
000120 51 16 23 3e ac 0e 71 be bd 16 35 be 7d 78 98 be
       0.15926482 -0.23540753 -0.17684455 -0.29779425
000130 69 48 84 3e e4 1d b8 be 7c 23 ce bd b0 c7 07 3d
       0.25836495 -0.35960305 -0.10065362 0.03314942
000140 1a 14 25 3e dc ca a7 3e c2 d6 a9 3d 23 16 67 be
       0.1612095 0.32771957 0.08292915 -0.22567038
000150 ff 7f 72 3e ff c0 c5 3d b1 43 ef 3a ef a6 fa bc
       0.23681639 0.09655952 0.0018254427 -0.030597178
000160 e0 49 01 3f bd 00 19 3f a8 34 a4 3e 78 5b 3b bd
       0.5050335 0.5976675 0.32071424 -0.04574153
000170 be b7 db bd 3d af de be ab 5f bc 3e c5 fc ea bd
       -0.107284054 -0.4349307 0.3679174 -0.11473993
000180 c5 05 f7 3e 80 92 30 3d d7 59 66 be 42 30 9a 3e
       0.4824659 0.043108463 -0.22495209 0.30114943
000190 55 2f 28 be 0f a1 8a be b5 66 d9 bd f2 57 55 3e
       -0.16424306 -0.27076003 -0.10615293 0.2083433
0001a0 07 a7 ef 3e f3 ff bb 3e bb 55 94 bd 89 77 ae 3e
       0.4680712 0.3671871 -0.07242914 0.34075573
0001b0 70 ea 42 3d 17 cc 17 3e b2 54 7b be 73 cb 18 3d
       0.04758686 0.14823948 -0.24544027 0.0373034
0001c0 e6 20 7a bd 82 3f 71 be 45 b9 af be 61 60 f1 bd
       -0.06106653 -0.23559383 -0.34321037 -0.11785961
0001d0 a4 c5 1e 3e a6 11 1c be 5c 47 d2 3e 0b 8d a3 bd
       0.15505081 -0.15241107 0.41070068 -0.07985886
0001e0 41 70 49 be 51 ec c4 be 23 90 b8 3d 2c a6 f0 be
       -0.19671728 -0.38461545 0.09011867 -0.4700178
0001f0 60 37 c9 3d 6e 2a b4 be ba c0 95 bd 07 ab 2a 3e
       0.09825015 -0.3518862 -0.0731215 0.16666804
000200 60 df b7 3d 33 4c 5b 3b e1 18 90 3e 7a 4b 7d be
       0.08978152 0.0033462166 0.2814398 -0.24735823
000210 20 8d 90 bc 5c 54 c6 3e 15 76 5d 3d 24 42 97 bc
       -0.017645419 0.38736236 0.05406769 -0.018464155
000220 33 58 de bd 61 7c bc ba 25 e1 12 bf df 08 5c 3f
       -0.108566664 -0.001438033 -0.57374793 0.85951036
000230 fa 4a 03 bf 25 13 1f 3e 0a 28 d1 bd 50 70 11 be
       -0.5128628 0.15534647 -0.10212715 -0.14203
000240 b9 28 02 3d 45 b3 c0 3e 91 5a 10 3e c6 2f 01 3f
       0.031777117 0.37636772 0.14097048 0.5046352
000250 db a1 df 3e 29 92 a0 3e b5 bb 5a 3d 5a aa 00 be
       0.43678173 0.3136151 0.053401668 -0.12564984
000260 23 4f 23 3d 1e 4c 19 3e 2b 06 f6 be d0 b2 8b 3e
       0.039870393 0.14970443 -0.4805158 0.2728486
000270 aa de 60 be 02 0a 85 3e 8b 48 96 be dc bd a6 bb
       -0.2195994 0.25984198 -0.2935222 -0.005088551
000280 43 fc a4 3c fe 41 6f 3d 95 61 00 3f d1 7d e0 3c
       0.020139819 0.058412544 0.501489 0.027403744
000290 6d b9 1a 3e 17 d5 88 3e cd 86 48 bd 06 5f d9 bd
       0.15109797 0.26725075 -0.04895668 -0.106138274
0002a0 c2 fb 1a be 91 f3 73 be 23 d4 be 3d ec e5 af 3f
       -0.151351 -0.23823382 0.093178056 1.3742042
0002b0 44 83 73 3c 55 0f d2 ba ff ca 13 be 21 0a bc 3e
       0.014862839 -0.0016026298 -0.14432906 0.36726478
0002c0 35 77 7a 3e 31 2c b2 3d 75 5c c2 bc 2b 77 61 3d
       0.24459536 0.08699835 -0.023725728 0.055045288
0002d0 73 bc 85 be 74 3d f6 3d 31 ae 0b 3e 61 98 41 bb
       -0.26120338 0.1202344 0.13640667 -0.0029540288
0002e0 ee 16 16 bd e0 14 59 3c 2f fd a6 3d a0 44 38 bf
       -0.03664296 0.013249606 0.0815376 -0.71979713
0002f0 8a 34 07 bd a1 c7 d4 bd 73 94 d7 3d 1d fc 53 3e
       -0.03300909 -0.10389639 0.10526361 0.20701642
000300 f2 fe 2f be 7e e8 be be 8b 5f f5 3d bb 1d ec 3c
       -0.17187098 -0.37286752 0.11981114 0.02882277
000310 47 3d 90 be ad 1d 45 3f 95 7d 88 3e 48 dd 1f bf
       -0.2817175 0.76998407 0.2665831 -0.62447023
000320 e0 f1 fb bd 18 58 0f bb 53 aa 0a 3e a7 6a 9e be
       -0.12301993 -0.0021872576 0.13541536 -0.30940744
000330 b8 0c 04 be 10 5c 81 bd 29 44 b0 bc 6a d1 88 bd
       -0.12895477 -0.06316388 -0.021516876 -0.066805676
000340 e5 ab 33 3e c4 0e 41 3f ce cb a2 3d e8 f4 90 bc
       0.17546041 0.75413156 0.07949029 -0.017694905
000350 04 11 81 3c cd d7 21 be d4 cb 80 bd 3a 9e 33 3d
       0.015755184 -0.15804978 -0.06288877 0.04385207
000360 f7 6a 55 3e f8 28 c3 be f6 ce e8 bd 52 df 97 bf
       0.20841585 -0.38117194 -0.113676 -1.1865027
000370 ba 74 aa bc 05 c3 07 3d bb 23 c6 3d f0 79 39 be
       -0.020807613 0.03314497 0.09674784 -0.18112922
000380 8e 25 9f bd 12 ee a9 3e 31 ba 6b bc 11 02 a9 3b
       -0.07770835 0.33189446 -0.014387653 0.005157717
000390 1e c4 64 3d e7 85 9f be 2f 8c ae bc b9 50 b3 bd
       0.055851094 -0.31156847 -0.02130708 -0.08755631
0003a0 dd f0 23 bd c4 a9 cc bd 38 fc c2 3c 24 55 e8 3c
       -0.040024627 -0.09993318 0.023801908 0.02836091
0003b0 d9 25 76 bd d6 13 9a bd 76 50 4a be 5d b5 98 3c
       -0.060094688 -0.07523315 -0.19757256 0.018641168
0003c0 44 08 09 3e 2f 23 9a 3c 78 23 0f 3e bf 6a a5 be
       0.1338206 0.018815605 0.13978374 -0.32308003
0003d0 d3 19 d0 be c4 46 b6 bd 02 e6 3d bc dd ac 95 be
       -0.40644702 -0.08900216 -0.011590483 -0.29233447
0003e0 73 2b b3 be 0d f7 b1 bd ca c4 8d 3e cc 3a cc 3d
       -0.34994087 -0.08689699 0.276892 0.09972152
0003f0 59 54 96 be 3c c0 b2 be 3d 21 04 3f a4 72 74 bc
       -0.29361227 -0.34912288 0.5161322 -0.014919911

MatMul_1 f4 [64, 128]
000000 43 23 39 3c 96 6a a1 3e 47 03 8d be 40 35 b7 3e
       0.011299911 0.3152663 -0.27541563 0.35782814
000010 4e 72 f6 be b9 c2 c5 be ef 13 2b be 27 8f f9 be
       -0.48134083 -0.38625124 -0.16706823 -0.4874203
000020 18 04 04 bf eb 4b 3f 3e 42 8d a8 be a6 36 12 3f
       -0.51568747 0.18681304 -0.3292027 0.57114637
000030 5c c9 4e be 36 39 1a bf be 5b 92 3e 97 b6 42 be
       -0.20194 -0.60243547 0.2858562 -0.19014965
000040 bc db a3 3e 8a 87 51 be 78 e4 fb be 22 21 b7 bd
       0.32003582 -0.2046186 -0.49197745 -0.089418665
000050 97 0f 01 bf 81 f5 9e bc 92 fa f4 3d 6b f1 9a bd
       -0.50414413 -0.019404175 0.11961855 -0.07565578
000060 be 92 a6 be 35 44 6d 3c e6 ed a3 be 85 7d 94 be
       -0.3253383 0.014481594 -0.3201744 -0.29002014
000070 64 b7 f4 bc c9 b7 8b 3d 30 83 4b 3e d0 4a 11 3e
       -0.029872604 0.068221636 0.19874263 0.14188695
000080 32 8d 4d be 31 be 76 3e e5 f5 a3 be 1e 3c ca 3e
       -0.20073393 0.2409599 -0.3202354 0.3949899
000090 d5 7b 69 3e 2e 82 67 3d 8a e0 7b be 72 38 00 bf
       0.22801144 0.056520633 -0.24597374 -0.5008613
0000a0 0c 38 b9 3e 5e a2 83 3d 62 82 0d 3f 59 2a 8a be
       0.36175573 0.064274535 0.55277073 -0.26985434
0000b0 92 3d 46 3e 70 2d 27 3f 4a 3e 39 3e 10 32 fb 3d
       0.19359425 0.6530371 0.18090168 0.12265408
0000c0 b3 6d 1e 3e d8 76 51 be 6a f6 62 3e 0a 5c 72 3e
       0.15471534 -0.20455492 0.22164312 0.23667923
0000d0 f3 db b7 3e 4d 40 db 3e 7f 52 ac 3c a7 f5 fb 3b
       0.35909995 0.42822495 0.021035431 0.007689196
0000e0 7a c6 bd be dd cb 92 3d 30 1c 70 3e d1 d2 74 3e
       -0.37065488 0.0716779 0.23448253 0.23908545
0000f0 d7 05 83 be b8 06 45 3f d9 2a 67 bf eb 5d b0 3e
       -0.25590393 0.76963377 -0.90299755 0.34446654
000100 27 3b 84 3e a1 2a c7 3d b3 e4 4f be cd cf d1 3d
       0.2582638 0.09724928 -0.20302086 0.10244713
000110 ad 26 6a be 72 60 4a be 46 dc dd bc 0b d3 4d bd
       -0.22866316 -0.19763353 -0.027082574 -0.050250094
000120 6c 66 d7 be 2c e3 ed 3e c4 9d b3 bc 3e 4a 05 bf
       -0.4207033 0.4646238 -0.021925814 -0.5206641
000130 e9 e1 a7 be 91 0c 2e be b6 0a da 3e 03 a9 4a bf
       -0.32789543 -0.16996981 0.42586297 -0.7916414
000140 82 37 ce 3e 3b 4f 5c be 2a 6a 8d 3e 27 3f 2b 3e
       0.40276724 -0.21514599 0.2762006 0.1672331
000150 44 62 9c be a8 cf 80 3f de a5 b4 be 28 42 39 3f
       -0.3054372 1.0063372 -0.35282797 0.7236657
000160 04 f8 80 be dd 93 c3 be ed 4f 2f bf 5d 23 dc 3e
       -0.2518922 -0.38198748 -0.6848133 0.4299573
000170 16 2b ea bb 86 f4 ab 3d 82 19 6d 3e 62 69 18 3e
       -0.0071462495 0.083962485 0.23154262 0.1488395
000180 1a ce 5f 3d 13 0e 08 bd 1e 9b 21 be 26 38 a7 bd
       0.054639913 -0.033216547 -0.15781829 -0.08165006
000190 8f 2f d2 3c 4b 09 a0 3e 1a 3c c6 3e da 4d 1a bc
       0.025657443 0.3125709 0.3871773 -0.009417975
0001a0 17 4f c4 3e 56 0e b8 3e 8f 88 07 bf 8a a8 ae 3e
       0.3834159 0.35948437 -0.52942747 0.3411296
0001b0 02 87 86 be fb 8b 4b 3d c7 92 82 3d a0 69 67 be
       -0.26274878 0.049694043 0.06375652 -0.22598886
0001c0 6d 7f 2e be 59 a7 9e 3c 7b 63 06 bd e6 7e 59 3f
       -0.17040797 0.019366907 -0.032809716 0.84959257
0001d0 65 21 8c 3e b4 d0 73 3e 1b de 4d 3e 01 05 a3 be
       0.27369228 0.23810083 0.20104258 -0.31839755
0001e0 cd d0 47 3f 0f 46 f8 be 17 18 a2 3e c3 2b 04 bf
       0.7805298 -0.4849095 0.31659004 -0.51629275
0001f0 e2 1e 42 3e e4 17 48 3e f2 2d a4 3e 2d 6c 9c 3b
       0.18957093 0.19540364 0.32066303 0.0047736377
000200 69 16 48 3c 47 0d 16 3d ac a5 03 3e 65 a8 90 3d
       0.012212374 0.036633756 0.12856168 0.07063369
000210 07 13 0c 3e eb df 11 bc 6f 9e f3 bc f3 6d 12 3e
       0.13679133 -0.008903484 -0.029738633 0.14299755
000220 4e ff 67 bd 21 bc cc bd d9 f2 98 3d d2 3f c2 ba
       -0.056639962 -0.0999682 0.074681945 -0.0014820045
000230 fe 11 27 3e 94 c7 d9 bd ff 0e 42 3d 6f 66 4d be
       0.16315457 -0.1063377 0.047377583 -0.20058607
000240 63 90 b1 3e b3 1a 6f bd c8 36 55 bd 14 17 d8 bd
       0.3468047 -0.05837507 -0.052054197 -0.10551277
000250 62 4f a8 3e 49 ae 11 3e 39 44 6d 3d 00 e1 f5 bd
       0.32873064 0.14226641 0.05792639 -0.12005806
000260 89 3b eb 3d 88 22 a3 bd c4 0c bc bd 6c 4b 90 3c
       0.11485965 -0.07965571 -0.09182122 0.017614089
000270 95 af 1e 3e 69 3f d5 3d 36 71 09 be 2b a5 e5 3d
       0.15496667 0.10412485 -0.13422093 0.11213144
000280 fa 21 a9 bd e8 a6 a5 bd c8 34 c9 3d be 2e c5 3d
       -0.08258434 -0.080884755 0.0982452 0.09628056
000290 3f 58 d4 bd 91 80 5d be 73 0d 11 be 2f 19 72 3e
       -0.10368394 -0.21631075 -0.14165287 0.2364242
0002a0 e3 31 2f bd 27 a4 44 be db 86 75 3d 1c a3 1f be
       -0.042772185 -0.19203244 0.05994306 -0.15589565
0002b0 c4 aa 1f 3e 98 19 81 3c 11 0c c0 3c 75 6e ad 3d
       0.15592486 0.015759274 0.023443254 0.08468334
0002c0 72 49 67 bd 52 13 98 3d 1d 3e da 3c ce fa bb bd
       -0.056466527 0.0742556 0.026640946 -0.091786966
0002d0 f8 f9 7c bd 03 50 f3 bd 5a 61 b7 bb 7f 6a 1e 3e
       -0.061761826 -0.118804954 -0.005596322 0.15470313
0002e0 ed 3d 8e bd 9e 4c a4 bd de bf 25 be 34 b2 ed bd
       -0.06945405 -0.08022426 -0.16186473 -0.11606255
0002f0 e8 68 41 be c8 d8 48 be 08 4a 83 3e 96 27 eb bd
       -0.18887675 -0.19613945 0.2564242 -0.1148216
000300 8b fa 5f 3d 7a c2 4d 3e ce 36 88 bd 28 a1 ca 3d
       0.054682296 0.20093718 -0.06651078 0.09894019
000310 0c 19 b3 3c 34 07 2d 3d 11 9e ea bd d5 f1 25 be
       0.02186253 0.042243198 -0.1145593 -0.16205533
000320 82 37 b7 3d ad b4 5d bd 9f 0a a3 3c e5 69 f2 3d
       0.08946134 -0.054127384 0.019902525 0.11836604
000330 e7 b9 71 bc 9c c6 c7 3d cd 55 e7 bd 58 35 34 3b
       -0.014753795 0.097546786 -0.11295662 0.0027497616
000340 84 82 64 3d 0e 8a ab bd 33 80 b7 bd e2 c9 a2 bc
       0.055788532 -0.08375941 -0.08959999 -0.019871656
000350 67 9c 5a bb 14 24 1d be 4d 5a f5 3d 20 46 a0 3e
       -0.0033357383 -0.15345794 0.11980114 0.313035
000360 f6 46 57 bc af 80 98 3d da 6f b6 bc 0c 63 af bd
       -0.013139477 0.074464194 -0.022270132 -0.085638136
000370 24 fe 44 3c f3 25 5f be dc 2c 01 3e f1 53 40 3c
       0.0120234825 -0.2179182 0.12614769 0.011738763
000380 0e 5f 8a be d4 bb 0a 3e 2b e3 72 bd d0 ea 18 3e
       -0.27025646 0.13548213 -0.059298676 0.14933324
000390 83 34 20 3e 56 a7 57 be 4e 5d f1 bd 16 ec ac 3d
       0.15645032 -0.21059927 -0.117853746 0.08443467
0003a0 4e cb 12 3e f2 6a 57 be b2 b2 68 3e 16 29 6b bd
       0.14335367 -0.2103689 0.22724417 -0.05741223
0003b0 ac b7 5c be bb 45 fc bd be 8d 1b bd ae 92 da bd
       -0.2155444 -0.123179875 -0.037976973 -0.10672508
0003c0 87 36 74 3e d3 c7 9a bd 6e 80 b4 bd aa 35 a1 3c
       0.23848926 -0.07557645 -0.088135585 0.01967891
0003d0 2c 89 49 3d 69 38 50 3e b0 3f 39 be 65 1f 81 3e
       0.049203083 0.20334019 -0.18090701 0.25219265
0003e0 65 63 17 3d 4a 7c ff 3c 3c 81 f9 bd 69 1e ec 3a
       0.036960024 0.031187195 -0.121828526 0.0018014434
0003f0 61 01 c8 3d 86 35 e1 3d ce 03 45 3b bd 37 d5 3d
       0.09765888 0.10996537 0.0030062082 0.10411022

MatMul_2 f4 [64, 64]
000000 09 55 87 be 80 fe dd 3c c9 f0 e2 bd a6 6e e6 bd
       -0.26432064 0.027098894 -0.110810824 -0.11251573
000010 39 89 6c bd ea 73 92 bd 81 77 00 3f 53 1f 72 bc
       -0.057748053 -0.07151015 0.5018235 -0.014777976
000020 ed b7 f0 3e 3d dc 0b be a2 7f 18 3d 85 f2 df bd
       0.47015324 -0.13658233 0.037231095 -0.10934929
000030 4f 79 90 3e df 0b 41 3e cb 71 9a 3e f1 3b 38 be
       0.2821755 0.18852185 0.30164942 -0.17991616
000040 75 a8 3a be 92 ac f8 3d 67 92 13 bd ad 92 36 3f
       -0.18228324 0.1214229 -0.036028292 0.7131756
000050 5a c0 3a be 5d e4 7a bc ae 8f 28 bf 8c 06 43 bd
       -0.18237439 -0.015313235 -0.6584424 -0.047613665
000060 8e 41 36 3d 6a 8f 5b be a4 a6 a1 bd 2a 71 f9 3c
       0.04449611 -0.21441427 -0.07893112 0.030449469
000070 ca cc a3 bd 0e 48 2a 3e d5 eb 63 3e bc 05 26 be
       -0.07998045 0.16629049 0.22257932 -0.16213125
000080 77 0b 58 be c9 47 c9 bd 58 dc 0b 3f 90 0d 1e bd
       -0.21098123 -0.09828145 0.5463309 -0.038587153
000090 ce 5d 49 bd 2f 51 d7 be 2b a4 09 bd 00 90 81 bd
       -0.049161725 -0.42054126 -0.03360383 -0.06326294
0000a0 33 56 12 3f 6a 05 d6 3e 96 84 ae bd 2c e9 87 3d
       0.5716278 0.41801006 -0.085213825 0.06636271
0000b0 70 02 7f bd a5 37 00 3e ef 11 cd 3d 26 48 d3 3d
       -0.062258184 0.12521227 0.10013186 0.103164956
0000c0 54 ee 97 3e 3b ee 66 bd 52 59 ae 3e 35 e3 50 bd
       0.29674017 -0.056379538 0.3405252 -0.05099793
0000d0 11 3c b5 bd c1 01 1e 3e 5d 01 83 be 27 ee 4a 3d
       -0.088493474 0.15430357 -0.25586978 0.049543526
0000e0 04 9b 21 3e a4 13 0a bf 10 a9 e9 bc ee f1 1e 3e
       0.1578179 -0.5393622 -0.028522998 0.15521976
0000f0 3d da 9d be bb fd 79 bd 4f e0 94 be 2b 04 b7 be
       -0.30830565 -0.06103299 -0.29077384 -0.35745367
000100 8c 55 c1 3d 91 4c aa 3c 3a 4b da be 63 eb 82 be
       0.09440145 0.020788463 -0.42635518 -0.2557021
000110 4f d4 d9 be d7 fb 93 bd f8 2c c7 3d 33 29 01 bb
       -0.4254479 -0.07225769 0.09725374 -0.0019708395
000120 7a 53 f7 3d 8a f4 a2 bd 77 db 85 3a ec 4d 14 3e
       0.12076469 -0.079567984 0.00102125 0.1448285
000130 c5 70 f0 be 63 e8 cf bd e5 3d 26 3e d7 56 52 be
       -0.46961036 -0.10151746 0.16234548 -0.2054094
000140 00 10 14 3d 9b 3b 81 3e 74 18 41 be 11 b2 62 be
       0.03614807 0.25240788 -0.18856984 -0.2213824
000150 cb 50 c3 be 65 22 3e be de e9 db bd d3 64 42 3c
       -0.38147578 -0.18567808 -0.10737966 0.011864859
000160 b7 1e 8c 3e cf 46 cd be ee e5 0d be 96 5b 0d 3f
       0.27367184 -0.40093085 -0.13857242 0.55217874
000170 d5 b6 a2 bd 79 fe 92 bc da e4 39 bc 64 1d 2c 3e
       -0.07945029 -0.017943608 -0.011346066 0.16808087
000180 60 d6 c2 3d c0 d7 04 be 16 39 4b 3f da 42 18 be
       0.09513545 -0.12972927 0.7938398 -0.14869252
000190 6c 8d 94 bd 06 49 e4 be 81 b8 ee 3b 98 0f 56 bd
       -0.072535366 -0.44586962 0.007285178 -0.052260965
0001a0 a6 a8 e9 3e 40 24 f1 be 85 a8 a4 bd d6 99 de 3e
       0.4563648 -0.4709797 -0.08039955 0.43476743
0001b0 e7 f9 f5 3e 6d af d3 3e 72 c5 e7 3e 61 cb 80 be
       0.48042223 0.41344777 0.45267826 -0.25155166
0001c0 2e 38 97 3e 3a cb 37 3f 62 d2 6a 3e d5 34 a2 bd
       0.2953505 0.71794474 0.22931817 -0.07920233
0001d0 1d 98 69 bc a6 71 31 bf ef 71 6d be 66 7f dc 3e
       -0.014257458 -0.6931404 -0.23187993 0.43065947
0001e0 3e f0 78 be f4 3b d6 be 26 62 fa 3d 90 07 9f 3e
       -0.24310395 -0.41842616 0.122257516 0.31060457
0001f0 a2 72 49 be 84 50 84 38 6d 0a 0a bd 9b f7 c7 be
       -0.19672635 6.309248e-05 -0.03370135 -0.39056095
000200 db dc 2c be 7c f7 54 be 4d 77 63 be 63 00 cf be
       -0.16881125 -0.20797533 -0.22213478 -0.40429983
000210 f8 c8 5b bc 9c f5 19 be c4 3f ec bd 6c b2 7a be
       -0.013414614 -0.15035099 -0.115356 -0.24482125
000220 5e 12 48 3f 1d 2d a9 3e 97 95 4b be 20 5b 52 bc
       0.78153026 0.3304223 -0.19881283 -0.012839109
000230 8c 86 04 3e 88 dc 30 bd 8a 07 17 bd 25 52 93 bd
       0.1294195 -0.043179065 -0.036872424 -0.07193402
000240 03 2e 5f be 92 0e eb 3e 5f 1b 66 be 72 1f 23 be
       -0.21794896 0.45909554 -0.22471379 -0.15929964
000250 9b 87 db be 0d 1f b4 be 56 11 b1 bd 3a ad 0d be
       -0.42876896 -0.3517994 -0.08645885 -0.13835612
000260 70 1c cc bd 5b 10 94 3e f0 0b b3 3e 7c 20 13 be
       -0.099663615 0.28918728 0.34970045 -0.1436786
000270 e2 4b f9 bc 94 0e 38 bf 8e e0 00 3f d6 03 82 be
       -0.030431692 -0.71897244 0.50342643 -0.25393552
000280 6d 55 96 3d 46 59 b1 be eb 7c ed 3e 0f 75 0d 3f
       0.073405124 -0.34638423 0.46384367 0.5525674
000290 46 1d 5b 3e 88 d7 70 be fa 75 c7 3d 62 ef fd be
       0.21397886 -0.23519719 0.09739299 -0.49596697
0002a0 e4 e7 86 bc e8 3d 04 3f 88 80 e0 be f5 9f 3c 3e
       -0.016467996 0.5165696 -0.43848062 0.18420394
0002b0 e5 8d d0 be 52 19 d5 3e f1 ca ab 3e 11 fe 8d 3e
       -0.40733257 0.4162088 0.3355327 0.277329
0002c0 74 3e 05 3f 6b be 91 be da 7e 2c 3b 13 d3 45 3f
       0.5204842 -0.2846559 0.0026320727 0.772752
0002d0 f0 04 ac 3e 43 b6 fc bd 6c a9 0a bf e4 97 5c 3e
       0.33597517 -0.12339451 -0.5416477 0.21542317
0002e0 d6 ae 0b bf 79 ca 08 bf e2 14 8c 3d 0b dc 89 be
       -0.54563653 -0.5343395 0.068399206 -0.26925692
0002f0 63 ac f0 3d 29 83 b6 bd 1c 66 1b 3f 85 46 ce be
       0.1175163 -0.089117356 0.6070268 -0.40288177
000300 e5 5f 51 3c 3f 73 cd 3d e6 2c db be a8 a4 5d be
       0.012779211 0.10031747 -0.42807692 -0.21644843
000310 9c bf 3a bf 83 0d 48 3e 3d 3e e4 3d 1c b7 ba 3e
       -0.7294862 0.19536404 0.111446835 0.36467826
000320 3a cf fc 3d 91 a2 ab 3c 72 1c a1 bd 89 ac 2b bf
       0.12344213 0.020951541 -0.07866754 -0.6706014
000330 b8 07 d3 bd ca 40 27 be a1 c8 cf 3d c4 8f 5f bf
       -0.103042066 -0.16333309 0.10145689 -0.87328744
000340 9b c8 9b 3e fd 9c 76 be 79 8f 08 bd 99 9c 66 3f
       0.30426487 -0.24083324 -0.03333995 0.900827
000350 71 72 19 3f 59 85 f8 bd e4 c9 c5 3d 74 d1 4d 3d
       0.5994025 -0.12134809 0.09657648 0.05024858
000360 06 f9 f2 bb 30 0d cc 3e da 0f ac be 35 68 35 3d
       -0.00741494 0.3985381 -0.33605844 0.044288833
000370 28 08 63 3f d6 8b ba 3d 20 e7 49 3f 3c a5 9b 3c
       0.8868432 0.09108703 0.78868294 0.018999688
000380 9b 80 66 bd fd e9 39 bd 25 55 d9 be d5 7a 26 3e
       -0.05627499 -0.045389164 -0.42447773 0.16257794
000390 f3 82 81 be ad 66 bf 3e 41 2d 94 3e c7 05 49 bf
       -0.2529522 0.37383023 0.28940776 -0.7852444
0003a0 d2 ef a0 3e b5 21 07 3e 1b 63 9a bc 64 4b f7 bd
       0.31432968 0.13196452 -0.018846085 -0.120749265
0003b0 c2 92 5c 3f 84 18 d3 3d 5a 8d b3 3d 39 77 a3 3e
       0.86161435 0.1030741 0.08767195 0.31926897
0003c0 91 4a 02 bd 34 c8 79 3b 45 8f 4a bd 4e 95 e4 3d
       -0.031809393 0.0038113715 -0.04945304 0.1116129
0003d0 ae f8 75 3e 46 29 52 bf d0 b0 1d bf bd 6b af 3e
       0.24020645 -0.8209423 -0.6159792 0.34261885
0003e0 bb 71 c9 bd 5d 5c ff bd e3 b4 97 bd 8e 62 0a 3e
       -0.098361455 -0.12468789 -0.07407548 0.13514158
0003f0 4a a5 b1 be ff f5 2c 3d 51 b1 a1 3e ab be e5 be
       -0.34696418 0.042226788 0.31580594 -0.4487203
